dqn_model.pth (torch, 88877 bytes, 6 tensors)

net.0.weight f4 [128, 100]
0	0x3de5c12b	0.112184845
1	0x3e3f0f32	0.1865814
2	0xbdbef958	-0.09324902
3	0x3cc29508	0.023752704
4	0x3dc5cf6d	0.09658704
5	0x3d537e57	0.05163416
6	0x3c22225d	0.009895888
7	0x3ddda383	0.10822203
8	0x3e3b7d5c	0.1830954
9	0x3e84960b	0.25895724
10	0x3e6c48e2	0.23074678
11	0x3e9f2f87	0.31090948
12	0xbdc9a37f	-0.098456375
13	0xbc8b14f8	-0.016977772
14	0xbdccafe3	-0.09994485
15	0x3ca63702	0.020289902
16	0x3da4ab7f	0.08040523
17	0xbd0fb591	-0.035085265
18	0xbdae41a0	-0.08508611
19	0x3e345a45	0.1761256
20	0x3d45cb12	0.048289366
21	0x3c2a69a9	0.010401168
22	0x3eb45d21	0.35227302
23	0x3d96ec71	0.07369316
24	0xbdbfaca3	-0.093591
25	0x3dd0f86c	0.10203633
26	0x3d051014	0.032486036
27	0xbdb7e51a	-0.089792445
28	0xbddbaf5c	-0.107268065
29	0x3de1feef	0.11034953
30	0x3bb36bdf	0.0054755057
31	0x3e17c1bd	0.14819999
32	0x3e5e09e2	0.21683457
33	0xbb544540	-0.003238991
34	0xbdc06b69	-0.09395487
35	0xbce77322	-0.028253142
36	0xbe0e927a	-0.13923064
37	0xbdd9c4b6	-0.10633223
38	0xbdcd1fbc	-0.100158185
39	0x3e45c293	0.19312505
40	0x3e36d12f	0.17853235
41	0x3d9b3e41	0.07580233
42	0xbcb6ade0	-0.022299707
43	0xbd5618e3	-0.052269828
44	0xbe66f631	-0.22554852
45	0xbe087278	-0.13324916
46	0xbe170e4b	-0.14751546
47	0xbcd699e4	-0.026196428
48	0xbdb1f113	-0.086885594
49	0xbe424fcf	-0.18975757
50	0xbc7ab584	-0.015302066
51	0x3cc3a95b	0.023884466
52	0x3dafc75c	0.08582947
53	0x3b5df096	0.0033865324
54	0x3e8d6b4f	0.27620932
55	0xbcabff54	-0.020995773
56	0xbe49f28c	-0.1972143
57	0xbe2096bf	-0.15682505
58	0xbe325ddc	-0.17418617
59	0x3ea581e9	0.32325676
60	0x391143e7	0.00013853573
61	0x3dc150a3	0.09439208
62	0x3d56bea8	0.052427918
63	0x3d8f2fe4	0.06991556
64	0x3e88c387	0.26711676
65	0x3c26d3f0	0.010182366
66	0xbe242415	-0.16029389
67	0xbe4222bc	-0.18958563
68	0xbdf97b74	-0.1218175
69	0x3ebb365b	0.36564907
70	0xbd2da00c	-0.04238896
71	0x3c78f4b0	0.015195057
72	0xbdbf97cb	-0.09355124
73	0xbd2fe24e	-0.04294043
74	0x3e8b3a2a	0.27192813
75	0xbce00554	-0.02734629
76	0x3d5df13e	0.054185145
77	0xbd605f67	-0.054778483
78	0xbe576375	-0.21034034
79	0x3ea858ec	0.32880342
80	0xbe39f587	-0.18160067
81	0xbd3aeeaa	-0.045637764
82	0xbe05e7fc	-0.13076776
83	0xbc06534d	-0.008198571
84	0xbe13c6b5	-0.1443127
85	0x3d32ab7a	0.043620564
86	0xbe2821e3	-0.16419177
87	0xbe4fd59e	-0.20296332
88	0xbe253420	-0.16133165
89	0x3ec25dde	0.3796224
90	0xbddf304d	-0.108978845
91	0xbe6ce9b8	-0.23136032
92	0xbe10e7c8	-0.14150918
93	0xbe67b5b2	-0.22627905
94	0xbe402f28	-0.18767989
95	0xbe256c60	-0.16154623
96	0xbe571619	-0.21004523
97	0xbe322025	-0.17395075
98	0xbe537a24	-0.20652062
99	0x3de1563b	0.11002775
100	0x3d88ea55	0.0668532
101	0xbd4afe27	-0.049558785
102	0xbc4796a8	-0.012181915
103	0xbca16780	-0.019702673
104	0xbc8dd64c	-0.017314099
105	0x3d88f797	0.06687849
106	0xbdbcd4e7	-0.092202954
107	0xbdb1cded	-0.08681855
108	0x3bc60580	0.006043136
109	0x3dbb892b	0.09157022
110	0xbd22a270	-0.039705694
111	0xbd779810	-0.060447752
112	0xbda92d6d	-0.082606174
113	0x3d19886e	0.037483625
114	0x3d0fda12	0.035120077
115	0x3cfa112c	0.030525766
116	0xbcdfdad8	-0.027326033
117	0xbd949ee3	-0.07256868
118	0xbd1c127a	-0.038103558
119	0x3d7f7052	0.062362976
120	0x3d4d52e2	0.05012787
121	0x3d91ed87	0.07125383
122	0xbd6df9fd	-0.058099736
123	0xbcfd20c8	-0.03089942
124	0xbc1ec670	-0.009690866
125	0xbd4031d3	-0.046922516
126	0x3cde3ab4	0.027127601
127	0x3da01119	0.07815761
128	0x3db0c0d1	0.08630527
129	0x3d74657e	0.059667103
130	0xbdcbe2eb	-0.099553905
131	0xbd4b009a	-0.04956112
132	0xbcaef5e8	-0.021357492
133	0xbd57283a	-0.052528597
134	0xbc30deb0	-0.01079528
135	0xbda22fde	-0.07919286
136	0x3c363168	0.011120178
137	0xbc6638a8	-0.014051594
138	0x3d953d8f	0.07287132
139	0xbbfe2830	-0.0077562556
140	0x3d1e79f2	0.038690515
141	0xbd8fa972	-0.07014741
142	0x3dca9181	0.09891034
143	0x3d9ada21	0.07561136
144	0xbd835d2a	-0.06414254
145	0xbdc0a10a	-0.09405716
146	0x3d2874ae	0.0411269
147	0x3d2ae28a	0.04171995
148	0x3d9d3fb9	0.0767817
149	0xbc93b6f8	-0.018031582
150	0x3da17c87	0.0788508
151	0x3caf2780	0.02138114
152	0xbd025c90	-0.031826556
153	0x3d0901e2	0.03344906
154	0xbd55b693	-0.05217607
155	0x3d8970e5	0.06710986
156	0x3ce39bf4	0.027784325
157	0x3d193b62	0.037410147
158	0x3db399a9	0.08769543
159	0xbd8c0d8e	-0.06838523
160	0xbd5cb9e7	-0.053888228
161	0xbd4877d3	-0.0489424
162	0xbd0401c4	-0.032228246
163	0x3db32f8f	0.087493055
164	0x3b987020	0.004652038
165	0xbd85036c	-0.06494793
166	0x3d7bc3a2	0.061465867
167	0xbc61b5c0	-0.013776243
168	0xbd569f53	-0.052398037
169	0x3cdef3ac	0.027215801
170	0x3d8a27ce	0.067458734
171	0xbd8e6f52	-0.069548264
172	0x3d1aaae2	0.037760623
173	0x3da88131	0.08227766
174	0x3db77c01	0.08959199
175	0x3cd1052c	0.025515161
176	0xbb823200	-0.0039732456
177	0xbdb0646a	-0.086129025
178	0xbdc8df25	-0.098081864
179	0x3d7e1d56	0.062039696
180	0xbb9419b0	-0.0045196638
181	0xbbec0000	-0.0072021484
182	0xbd5466ed	-0.05185597
183	0xbdc223b3	-0.09479465
184	0xbd4c7393	-0.049914908
185	0xbd62526d	-0.05525439
186	0x3d84656e	0.06464659
187	0xbda98783	-0.082778
188	0xbc0c7200	-0.008572102
189	0xbca5a820	-0.02022177
190	0xbcc70914	-0.024296321
191	0xbd74f02d	-0.059799362
192	0x3d2616e6	0.04054918
193	0x3d674922	0.05646623
194	0xbab7b380	-0.0014015287
195	0x3df141a7	0.117801
196	0x3d66e66e	0.0563721
197	0xbd8fc0c6	-0.070191905
198	0x3cefab64	0.02925653
199	0x3b1436e6	0.002261573
200	0x3f0cdf01	0.55027777
201	0x3e8fd381	0.28091052
202	0x3e9e68ba	0.30939275
203	0x3e9fc0dc	0.31201828
204	0x3e9a90b3	0.30188522
205	0x3e738ddf	0.23784588
206	0x3e856b8c	0.26058614
207	0x3e0227ea	0.12710539
208	0x3e06d7f3	0.13168316
209	0x3db46903	0.08809092
210	0x3e392213	0.18079405
211	0x3de943b1	0.11389864
212	0x3d0e0a8a	0.03467802
213	0x3c821508	0.01587917
214	0x3d9a6488	0.07538706
215	0x3e03ee12	0.12883785
216	0x3d774ab1	0.060373966
217	0xbbcb68c5	-0.006207558
218	0xbe06f5ba	-0.13179675
219	0xbdbd9140	-0.0925622
220	0x3ea40cd1	0.32041028
221	0x3d47183b	0.048607092
222	0x3ea48f81	0.32140735
223	0x3c5fd4e8	0.013661601
224	0x3e7a5182	0.24445155
225	0xbd0500a1	-0.032471303
226	0x3d8f84d4	0.07007757
227	0x3d79090e	0.06079965
228	0xbd0511a2	-0.03248752
229	0xbe1cab20	-0.15299654
230	0x3e05b0c9	0.1305572
231	0x3e5b8e05	0.21440895
232	0x3e3a078a	0.18166938
233	0x3c8995ac	0.016795002
234	0x3dd8d91c	0.10588285
235	0xbdbb5cb9	-0.09148545
236	0x399cd49e	0.0002991305
237	0xbd257837	-0.04039785
238	0xbdb20c46	-0.08693747
239	0xbdfa8ee0	-0.122342825
240	0x3e1c65a9	0.15273155
241	0xbda3b038	-0.079925954
242	0x3cd75dc4	0.026289828
243	0x3d6ca9c2	0.05777908
244	0x3dbd5b58	0.09245938
245	0xbdcb9e8d	-0.099423505
246	0xbdf52c12	-0.11971296
247	0xbe2322e4	-0.15931278
248	0xbe364a0d	-0.17801686
249	0xbdfb797b	-0.1227903
250	0x3e23563b	0.15950863
251	0x3e7cbf03	0.2468224
252	0x3e3cee2c	0.1845023
253	0x3de68c5a	0.11257239
254	0xbe0755ba	-0.13216296
255	0xbd73a807	-0.059486415

net.0.bias f4 [128]
0	0x3cb422bf	0.021989224
1	0xbdfa746c	-0.12229237
2	0x3da39507	0.07987409
3	0x3e674068	0.22583163
4	0x3dc30f97	0.09524458
5	0x3d50f468	0.051014334
6	0xbc2fac2e	-0.010722203
7	0x3c2797f3	0.010229099
8	0x3e83662d	0.2566389
9	0x3db23681	0.08701802
10	0x3ddd4b47	0.10805374
11	0x3e1920c6	0.14953908
12	0x3c1f2aa9	0.009714761
13	0xbd411f67	-0.04714909
14	0x3d5a3caa	0.05328051
15	0x3d30888f	0.043098982
16	0x3e1019b8	0.14072311
17	0xbddf7c38	-0.10912365
18	0xbdbef04a	-0.09323175
19	0x3dc0ca4c	0.09413585
20	0x3c4603b9	0.0120858485
21	0x3b9fe86f	0.004880003
22	0x3d2c2fb4	0.04203768
23	0x3e7ffe8f	0.2499945
24	0x3de29c55	0.11064974
25	0x3d771eba	0.060332038
26	0x3deb3a6c	0.114857525
27	0x3d8f314e	0.06991826
28	0x3dac3a34	0.08409539
29	0x3d3ca864	0.046059027
30	0x3d834659	0.06409902
31	0xbca38f05	-0.019965658
32	0xba159c47	-0.0005707186
33	0x3c2b4e31	0.010455654
34	0x3d8ef0b0	0.06979501
35	0x3e22953a	0.15877238
36	0x3e758c13	0.23979215
37	0x3e800a07	0.2500765
38	0x3ceab7aa	0.028652031
39	0x3e2a7bb5	0.16648753
40	0xbd8f4a60	-0.06996608
41	0x3d070dc5	0.032972116
42	0x3e48fae1	0.19626953
43	0x3e18b4c9	0.14912714
44	0x3d7587bc	0.0599439
45	0x3d893b3b	0.067007504
46	0xbd3102c7	-0.04321554
47	0x3e0c70d9	0.13714923
48	0xbc227e2e	-0.009917779
49	0xbdc2bfa8	-0.09509212
50	0x3dd2e5e8	0.102977574
51	0x3cb4a366	0.02205057
52	0xbdc31edd	-0.09527371
53	0xbbdaf2f3	-0.006681794
54	0xbd83e8b6	-0.064408705
55	0xbdfb8f45	-0.12283186
56	0x3e365e9d	0.1780953
57	0xb95ff320	-0.00021357508
58	0x3e99d165	0.30042568
59	0xbb4a3366	-0.003085339
60	0xbdaa2a65	-0.08308867
61	0x3d70e339	0.058810446
62	0x3c9b78d8	0.018978521
63	0x3d026f8a	0.031844653
64	0x3da9ba28	0.082874596
65	0x3e03a6b0	0.12856555
66	0x3e301a3a	0.17197505
67	0x3e7aab9f	0.24479531
68	0xbcb0bf3e	-0.021575566
69	0xbb4d72a7	-0.0031348856
70	0x3e2e4a29	0.17020477
71	0x3cff5a42	0.031170968
72	0x3c168d63	0.009188983
73	0x3d1038f6	0.035210572
74	0x3ed3d2b4	0.4137169
75	0x3ce09c2b	0.027418217
76	0x3e19c640	0.15017033
77	0x3e08ed42	0.13371757
78	0x3d56c381	0.05243254
79	0x3e16839f	0.14698647
80	0x3b9f0229	0.0048525524
81	0xbcf22a8b	-0.029561302
82	0x3d445016	0.04792794
83	0x3d710198	0.05883941
84	0x3e7f01a5	0.24902971
85	0x3ea1763f	0.31535527
86	0x3e45b96c	0.19309014
87	0xbdad83f0	-0.08472431
88	0x3b49888e	0.003075156
89	0x3d14ad3e	0.03629803
90	0x3dbf22e2	0.09332825
91	0x3ac8778d	0.0015294418
92	0x3d37cb1e	0.044871442
93	0x3e26a3c8	0.16273415
94	0x3dbd3424	0.09238461
95	0x3e2bf2c8	0.16791832
96	0x3dd250e0	0.10269332
97	0x3c8ebc9b	0.017423918
98	0x3dca72ff	0.09885215
99	0xbd55fa61	-0.052240733
100	0xbdb4d173	-0.08829012
101	0x3c46e534	0.012139607
102	0x3cd608a0	0.02612716
103	0x3edc8984	0.43073666
104	0xbdb5a24f	-0.088688485
105	0xbbdcb2e4	-0.0067351926
106	0x3ec28a51	0.37996152
107	0x3d994583	0.074839614
108	0x3d20bbb6	0.039241515
109	0xbc9ed7b0	-0.019389957
110	0x3defe285	0.11713127
111	0x3ecfdf20	0.40599918
112	0xbd76a83a	-0.060219027
113	0x3c9f1a4f	0.019421725
114	0xbd4f946e	-0.050678663
115	0x3d8aecc3	0.0678344
116	0x3df2df6a	0.11859019
117	0xbd3551f1	-0.0442676
118	0x3e85a31a	0.26101
119	0xbd68501a	-0.056717016
120	0x3de8d100	0.113679886
121	0xbd54192a	-0.05178181
122	0x3e760d27	0.24028455
123	0x3d8f2793	0.0698997
124	0x3c271d27	0.010199822
125	0xbdaa05b8	-0.08301872
126	0x3e5f14f8	0.21785343
127	0x3d3079e1	0.043084983

net.2.weight f4 [64, 128]
0	0xbd31d5f9	-0.04341695
1	0x3da60b67	0.081076436
2	0x3cc86374	0.024461485
3	0xbda6fe7f	-0.0815401
4	0xbc9a3c31	-0.01882753
5	0xbd097037	-0.033554282
6	0x3d01420a	0.03155712
7	0x3d0a18b2	0.033714958
8	0xbd691b08	-0.056910545
9	0xbabe91c0	-0.0014539286
10	0xbd85e26e	-0.06537329
11	0xbd0029a8	-0.031289726
12	0x3be7cb6f	0.0070738117
13	0xbdb3d6bd	-0.087811925
14	0x3c68e6e9	0.0142152095
15	0xbda3e318	-0.08002299
16	0x3cf55188	0.029946104
17	0x3ccd6cb4	0.025076248
18	0xbbb59e30	-0.005542539
19	0xbc93b220	-0.018029273
20	0xbdaf9ada	-0.085744575
21	0x3d39ff62	0.045409568
22	0xbd4fed39	-0.050763343
23	0xbd159354	-0.036517456
24	0x3c226752	0.009912329
25	0xbd87719c	-0.06613466
26	0xbd586ad4	-0.052836254
27	0xbc2e1418	-0.010624908
28	0x3d66d92c	0.056359455
29	0xbda93e02	-0.0826378
30	0x3d979e18	0.07403201
31	0xbd81d3a2	-0.06339194
32	0xbd9bef83	-0.076140426
33	0xbbf1f24b	-0.00738362
34	0x3cf088bd	0.029362077
35	0xbd6681b2	-0.05627603
36	0x3ce29c9f	0.027662573
37	0x3d381b7a	0.04494808
38	0x3d9b9653	0.075970314
39	0x3d750265	0.059816737
40	0xbaa84540	-0.0012838021
41	0x3cc77c11	0.024351152
42	0x3d73b345	0.059497137
43	0xbd133665	-0.035940547
44	0x3d83cfcd	0.06436119
45	0x3b6f05c1	0.0036471935
46	0x3d13e5d7	0.036107864
47	0x3c603656	0.01368483
48	0xbd3f2619	-0.046667192
49	0xbd929916	-0.07158105
50	0xbd840ec8	-0.06448132
51	0xbc71b8f2	-0.014753567
52	0xbdb09c38	-0.08623546
53	0x3d80eedf	0.06295561
54	0xbd079ae6	-0.033106707
55	0x3bb19440	0.005419284
56	0x3d673963	0.056451213
57	0xbcdad439	-0.026712524
58	0x3c956d29	0.018240528
59	0xbd6f0c97	-0.058361616
60	0xbd42126a	-0.047380842
61	0xbcbb4370	-0.022859305
62	0x3d74ba32	0.059747882
63	0x3d126f80	0.035750866
64	0xbb85d837	-0.0040846127
65	0x3d90d328	0.07071525
66	0x3bffd04e	0.0078068143
67	0xbb898530	-0.0041967854
68	0xbd075dc3	-0.033048403
69	0x3d98d65a	0.07462759
70	0x3ceb13c8	0.028695956
71	0xbda14144	-0.078737766
72	0xbd92cb42	-0.071676746
73	0x3cd17e4f	0.025572924
74	0xbd8c15c0	-0.06840086
75	0xbda26f80	-0.07931423
76	0xbd77b180	-0.06047201
77	0xbd733227	-0.059374
78	0x3d8a8603	0.06763842
79	0xbdc8431a	-0.097784236
80	0xbcac8ddc	-0.021063738
81	0x3d66f40d	0.05638509
82	0xbdb993ee	-0.090614185
83	0xbcce7160	-0.025200546
84	0x3da410c1	0.08011008
85	0x3d77df60	0.06051576
86	0xbdbb3eed	-0.091428615
87	0x3d69a1fe	0.057039253
88	0x3d2dd51e	0.042439573
89	0x3c2a404b	0.010391305
90	0xbd38b231	-0.04509181
91	0x3d250d74	0.040296033
92	0xbd9334f4	-0.071878344
93	0xbd8d1298	-0.06888312
94	0x3c9e9fa8	0.01936324
95	0xbd4d544e	-0.050129227
96	0x3c99db92	0.018781457
97	0x3d4000c8	0.046875745
98	0xbd380594	-0.044927195
99	0x3d770e8f	0.06031662
100	0x3d7bfdda	0.06152139
101	0xbd257199	-0.04039154
102	0xbdc35260	-0.09537196
103	0x3d57f45a	0.052723266
104	0xbda611f9	-0.08108897
105	0xbc507361	-0.012722821
106	0xbd2c9c30	-0.04214114
107	0x3d9006a2	0.07032515
108	0xbd598b30	-0.053111255
109	0xbd08512d	-0.03328054
110	0x3d15b391	0.0365482
111	0xbb9bd150	-0.0047551766
112	0x3cdb9d78	0.026808485
113	0x3c0027e8	0.007822014
114	0xbd831a78	-0.06401533
115	0xbda44ffa	-0.08023067
116	0xbd28f0af	-0.04124516
117	0x3b84c533	0.0040518283
118	0xbd0e49f8	-0.03473851
119	0xbd9044c2	-0.070443645
120	0xbd952e68	-0.07284242
121	0x3c88ced8	0.016700193
122	0xbda16365	-0.07880286
123	0x3bde7d28	0.006789822
124	0xbd62bcf5	-0.055355985
125	0xbca278a4	-0.019832917
126	0x3d87d6bd	0.06632755
127	0xbd6dede0	-0.058088183
128	0x3d4171e6	0.047227763
129	0xbc89a616	-0.016802829
130	0x3e7ef4e8	0.24898112
131	0x3e00adcc	0.12566298
132	0x3e1654e6	0.14680824
133	0x3e80cade	0.25154775
134	0x3d979817	0.07402056
135	0x3e621b2f	0.22080682
136	0x3e30c8ac	0.1726405
137	0xbe0859ef	-0.13315557
138	0xbc3f3582	-0.011670472
139	0x3ec2d40b	0.380524
140	0x3e5ab643	0.2135859
141	0x3c69ac6a	0.014262298
142	0x3dc9a626	0.098461434
143	0x3d920baf	0.07131135
144	0x3dbf3b46	0.093374774
145	0x3b6c9313	0.0036098405
146	0xbca63356	-0.02028815
147	0x3d802f2d	0.06258998
148	0x3e0be18f	0.13660263
149	0x3cc044a7	0.023470236
150	0x3dbb87a2	0.09156729
151	0x3da0d45e	0.07853006
152	0x3e968d7c	0.2940482
153	0x3e3735ae	0.17891571
154	0xbb1087b4	-0.0022053542
155	0xbce4ba30	-0.027920812
156	0x3e24cff9	0.1609496
157	0x3dce9cd9	0.1008851
158	0x3e50068e	0.20315
159	0x3d8e5baf	0.06951081
160	0x3ccb82d7	0.024842663
161	0x3e60b9aa	0.21945825
162	0x3e2de391	0.16981341
163	0x3cf6db3f	0.030133842
164	0x3e20852c	0.15675801
165	0xbed47382	-0.41494375
166	0x3e12846f	0.14308332
167	0x3e65f98e	0.22458479
168	0x3bc3871a	0.005967033
169	0x3e3b5b7c	0.18296617
170	0x3e42e83d	0.19033904
171	0x3e3581f1	0.1772535
172	0xbdd9d874	-0.10636988
173	0x3ddb245d	0.10700295
174	0x3db52782	0.08845426
175	0x3da07a27	0.07835799
176	0x3e95f31c	0.2928704
177	0xbd3524cd	-0.04422455
178	0x3e22fe2a	0.15917268
179	0xbc3a24e1	-0.011361332
180	0xbd875a22	-0.06608988
181	0x3e35d6ea	0.17757764
182	0x3b9bc440	0.0047536194
183	0x3d774b8d	0.060374785
184	0x3e740b7e	0.23832509
185	0x3d9429a7	0.07234507
186	0x3dcaa13c	0.09894034
187	0x3d47fb0a	0.048823394
188	0xbd7a7227	-0.06114402
189	0x3d92278d	0.0713645
190	0x3e2790bc	0.16363806
191	0x3dcaf228	0.09909469
192	0x3db23a21	0.087024935
193	0x3e448d36	0.19194493
194	0x3db71aa0	0.08940625
195	0xbdfb21a7	-0.12262278
196	0x3dc40cd4	0.09572759
197	0x3e0ee927	0.13956128
198	0x3e0f5176	0.13995919
199	0x3d8ecd9d	0.06972811
200	0x3e81d349	0.2535651
201	0x3db279b1	0.08714617
202	0xbd8ae283	-0.06781485
203	0x3d9b343e	0.07578324
204	0x3e19bfd2	0.1501458
205	0x3e230ff2	0.15924051
206	0x3e98d096	0.29846638
207	0x3cd4c6f7	0.02597378
208	0x3e46debe	0.19420907
209	0x3bd55fbd	0.006511657
210	0x3e5375bb	0.2065038
211	0x3cfe85c8	0.031069651
212	0x3eaa8ed1	0.33312085
213	0x3da02068	0.07818681
214	0x3d26b72e	0.040702038
215	0x3d8ff60d	0.07029352
216	0xbd4aa6ba	-0.04947541
217	0x3e10d6e0	0.14144468
218	0x3ec3de26	0.38255423
219	0x3e6fc8e2	0.23416474
220	0xbe464d81	-0.19365503
221	0x3e612db4	0.2199009
222	0x3e6e0e29	0.23247589
223	0x3dd381fd	0.10327528
224	0x3e673b8d	0.2258131
225	0x3e130c6b	0.14360206
226	0x3e473ed7	0.19457565
227	0x3e278654	0.16359836
228	0xbda17ddc	-0.07885334
229	0x3c2e5a93	0.010641712
230	0x3dcf88f6	0.10133545
231	0xbeaf3a08	-0.34223962
232	0xbd67db83	-0.056605827
233	0x3c551882	0.013006331
234	0xbd82e018	-0.06390399
235	0x3c073dae	0.008254452
236	0x3ddb2c9c	0.10701868
237	0x3dfcb4ef	0.12339198
238	0x3dc04775	0.09388629
239	0x3e4a880a	0.19778457
240	0x3d415d1e	0.047207944
241	0xbc7cd0a0	-0.015430599
242	0x3d2e9d50	0.042630494
243	0x3d6e32b0	0.058153808
244	0x3d8ddec2	0.06927253
245	0x3e40628c	0.18787593
246	0xbda86860	-0.08223033
247	0x3e1fe257	0.15613686
248	0x3e7ded4c	0.24797553
249	0x3e3952f5	0.18098052
250	0x3e55ee48	0.20891678
251	0x3e317b6e	0.17332241
252	0x3e80b411	0.2513738
253	0xbb7225dc	-0.0036948835
254	0xbd54a9c9	-0.051919732
255	0x3e2b77a4	0.16744858

net.2.bias f4 [64]
0	0xbc710a81	-0.014711977
1	0x3dfe5059	0.12417669
2	0xbe15b64f	-0.14620326
3	0x3e1cfaa9	0.15329994
4	0xbe392b67	-0.18082963
5	0x3df3f951	0.11912788
6	0xbdd8c5c1	-0.105845936
7	0x3dc37b88	0.09545046
8	0xbdaa19a3	-0.08305671
9	0x3eef5844	0.4674703
10	0x3d9c142b	0.07621034
11	0xbd8ec2b2	-0.06970729
12	0xbe6561bc	-0.22400564
13	0x3dd755aa	0.10514386
14	0xbd59d89e	-0.053185098
15	0x3dc5e36c	0.09662518
16	0x3e864347	0.26223204
17	0xbdb91d9d	-0.090388514
18	0x3e4d22e3	0.2003284
19	0x3d58e003	0.05294801
20	0x3f1182dd	0.56840307
21	0x3aab3a1f	0.0013063586
22	0xbe04d0a9	-0.12970223
23	0xbe37629a	-0.17908707
24	0x3eda4af6	0.42635316
25	0xbd1078ae	-0.03527134
26	0x3d66a251	0.05630714
27	0x39fb5571	0.0004793811
28	0xbda3eb3e	-0.08003853
29	0x3dc65127	0.09683447
30	0x3df69477	0.12040036
31	0xbdf98e82	-0.12185384
32	0xbd81e3c2	-0.063422695
33	0x3e1c623a	0.15271845
34	0x3e023a02	0.1271744
35	0xbe0e51e6	-0.1389843
36	0x3dd1db6e	0.10246931
37	0xbbd1a330	-0.0063976273
38	0xbd919f61	-0.07110477
39	0x3cbcea71	0.02306101
40	0xbdd983c0	-0.106208324
41	0x3efcf051	0.49402097
42	0xbd95a53d	-0.07306907
43	0xbe38856d	-0.18019648
44	0x3e107c6d	0.14109965
45	0x3ef78cb3	0.48349532
46	0xbdfa40d8	-0.12219399
47	0xbdc65da9	-0.09685833
48	0xbdda4083	-0.10656836
49	0xbdcfcc18	-0.1014635
50	0x3d08833d	0.033328284
51	0x3d202ede	0.039107196
52	0xbd89561c	-0.06705877
53	0xbd7b5c81	-0.061367515
54	0xbdf60827	-0.12013274
55	0x3ab46836	0.0013763967
56	0xbe42b49f	-0.19014214
57	0xbe61b15e	-0.22040316
58	0x3d28dbd0	0.041225255
59	0x396d5d4a	0.00022636834
60	0x3dab5754	0.08366266
61	0x3e282810	0.16421533
62	0x3ed77464	0.42080986
63	0xbcb12833	-0.021625614

net.4.weight f4 [4, 64]
0	0xbdc0f7d4	-0.094222695
1	0xbe4916c5	-0.19637592
2	0xbe1e4848	-0.1545726
3	0xbe92355e	-0.2855634
4	0xbe556dff	-0.20842741
5	0x3e177c97	0.14793621
6	0xbcc4defa	-0.024032105
7	0xbeac039a	-0.33596498
8	0x3dcee516	0.101022884
9	0x3e8d7f6f	0.27636287
10	0x3e729235	0.23688586
11	0xbc0ac067	-0.008468724
12	0xbe0b6564	-0.13612896
13	0x3ea03054	0.3128687
14	0xbca067f0	-0.019580811
15	0xbe98b143	-0.2982274
16	0x3f0aba65	0.54190665
17	0xbd8c30b7	-0.06845229
18	0xbe442a73	-0.19156818
19	0xbcdf67fd	-0.027271265
20	0x3ebe93c4	0.3722211
21	0xbd749f30	-0.059722126
22	0xbd4e4921	-0.05036271
23	0xbe93b8d6	-0.28851956
24	0x3ef314f5	0.47476926
25	0xbc494b25	-0.012285982
26	0x3d2b51c4	0.041826025
27	0xbd8fd6ab	-0.070233665
28	0x3de25e82	0.11053182
29	0x3e3c1037	0.1836556
30	0x3e8ca286	0.27467746
31	0xbae561a8	-0.0017500417
32	0xbd7d3e0d	-0.061826754
33	0x3e84e7fc	0.2595824
34	0xbeafdc1d	-0.3434762
35	0xbe04e5f5	-0.12978347
36	0xbe8df62e	-0.27726883
37	0xbde55678	-0.11198133
38	0x3cbb1d40	0.022841096
39	0xbe97142a	-0.2950757
40	0xbd957af4	-0.07298842
41	0x3efa9afe	0.48946375
42	0x3d848aad	0.06471763
43	0xbd77372c	-0.06035535
44	0xbdbe8fe7	-0.09304791
45	0x3edd9d4a	0.43284065
46	0xbe38716f	-0.18012021
47	0x3e259722	0.16170934
48	0x3d869e52	0.06573166
49	0x3de7ac40	0.11312151
50	0xbeb10e7b	-0.3458136
51	0x3e5fc187	0.21851169
52	0x3d61e71f	0.055152055
53	0xbd8bc2db	-0.06824275
54	0xbe8913bd	-0.26772872
55	0xbd97b096	-0.07406728
56	0xbdd98364	-0.10620764
57	0xbdf0990f	-0.117479436
58	0x3d883cc8	0.06652218
59	0xbd8a4ae5	-0.06752566
60	0x3e825c76	0.25461167
61	0xbea9d6d9	-0.33171728
62	0x3f310f30	0.691638
63	0xbd06f82b	-0.032951515
64	0x3ce3205c	0.027725391
65	0x3dd99eb7	0.106259756
66	0xbe135aab	-0.14390056
67	0x3e34f979	0.17673291
68	0xbdd496c2	-0.10380317
69	0x3ea5f938	0.324167
70	0xbd49f180	-0.049302578
71	0xbe8c2712	-0.27373558
72	0xbdc4c6b4	-0.09608212
73	0x3efe4347	0.49660704
74	0xbeb801fa	-0.35939008
75	0xbe0ffdef	-0.14061712
76	0xbe2ba79a	-0.16763154
77	0x3e7ff801	0.2499695
78	0x3dedb26f	0.11606299
79	0x3e39f79e	0.18160865
80	0x3ddc8fa7	0.10769587
81	0xbd11b135	-0.03556939
82	0x3e83a986	0.25715274
83	0x3c95a1a0	0.018265545
84	0x3ecd647e	0.40115732
85	0xbee213d7	-0.44155762
86	0xbddc268f	-0.10749542
87	0xbc81bb3d	-0.015836352
88	0x3e98870f	0.29790542
89	0x3c635771	0.013875828
90	0xbe65d4af	-0.22444414
91	0xbd518b70	-0.05115837
92	0x3cf45920	0.029827654
93	0x3e947877	0.28998157
94	0x3e1c5d7c	0.15270036
95	0xbb40b7bd	-0.0029406392
96	0x3d025ed5	0.03182872
97	0xbe95290f	-0.29132888
98	0x3e6dfd77	0.2324122
99	0xbe6d6817	-0.23184238
100	0x3e21c43c	0.15797514
101	0xbc5534e0	-0.013013095
102	0xbd464284	-0.048403278
103	0xbdcf72bd	-0.101293065
104	0x3d91b42c	0.07114443
105	0x3e80a66b	0.25126967
106	0x3c643e80	0.013930917
107	0xbd7e22de	-0.06204497
108	0x3e1de88b	0.1542074
109	0x3e94d2d9	0.29067114
110	0xbdb64aa2	-0.08900954
111	0xbe081aad	-0.13291426
112	0xbdb27c56	-0.087151214
113	0x3cffe194	0.031235494
114	0xbe7dabf8	-0.24772632
115	0xbe6aec08	-0.22941601
116	0xbc37adf8	-0.011210911
117	0xbe3a8f74	-0.18218786
118	0xbdba377e	-0.090926155
119	0xbe5254a2	-0.20540097
120	0xbd90e1fd	-0.07074354
121	0xbdc0cbce	-0.09413873
122	0xbe595130	-0.21222377
123	0xbe684e12	-0.22686031
124	0xbf1a9aa8	-0.60392237
125	0x3edad639	0.42741564
126	0x3e4c6de5	0.19963796
127	0xbd1e1de7	-0.038602736
128	0x3b03b728	0.0020098183
129	0xbe47faa4	-0.19529206
130	0xbdde09e0	-0.10841727
131	0x3e5b272c	0.21401662
132	0xbdb772cc	-0.08957443
133	0xbe5fecf0	-0.21867728
134	0xbe0dfcc1	-0.13865949
135	0x3eaaee42	0.333849
136	0x3ca09a28	0.019604757
137	0x3f27ed47	0.6559643
138	0xbe025c39	-0.12730493
139	0xbe6901e1	-0.22754623
140	0xbdcecf2b	-0.10098108
141	0xbec43eb3	-0.38329086
142	0xbdce0e65	-0.10061339
143	0x3e6bb43f	0.23017977
144	0x3ed7c779	0.42144373
145	0xbdba8f87	-0.09109407
146	0xbe664108	-0.22485745
147	0x3da8a6e2	0.08234955
148	0x3ef6f7fd	0.48236075
149	0x3e5476f5	0.20748504
150	0xbde703f4	-0.11280051
151	0xbe3b126e	-0.18268749
152	0x3eaba184	0.33521664
153	0xbe919aa0	-0.28438282
154	0xbe4f0d0a	-0.20219818
155	0x3df6d080	0.12051487
156	0x3dde96a2	0.10868575
157	0xbe51be9d	-0.2048287
158	0xbeb44147	-0.35206053
159	0xbc3a89cf	-0.011385395
160	0xbe5b2723	-0.21401648
161	0x3f118763	0.5684721
162	0x3e532126	0.20618114
163	0xbb1e2171	-0.002412882
164	0x3d85de39	0.06536526
165	0xbd0e84a0	-0.03479445
166	0x3da1db7d	0.07903192
167	0x3dcebd79	0.10094733
168	0xbe335ae9	-0.17515148
169	0x3f0804ef	0.5313253
170	0x3df90072	0.12158288
171	0xbe018c94	-0.12651283
172	0xbe3bbdf3	-0.18334179
173	0x3ebc553d	0.36783782
174	0xbdf7136e	-0.12064253
175	0x3ddefe97	0.10888403
176	0x3d7f64bc	0.062351927
177	0x3d8e4fd5	0.069488205
178	0xbcd0d40e	-0.02549174
179	0xbe2cb9db	-0.16867773
180	0x3d859648	0.065228045
181	0xbdaa2d3e	-0.083094105
182	0xb9e1b3ae	-0.00043049216
183	0xbe35f340	-0.17768574
184	0xbdf8e649	-0.121532984
185	0xbe144ff3	-0.14483623
186	0xbe506a61	-0.2035308
187	0xbe3abbd8	-0.18235719
188	0x3d8a5fde	0.067565665
189	0xbe2d746b	-0.16938941
190	0x3f2350cd	0.6379517
191	0x3dd239a6	0.10264902
192	0x3da7039d	0.08154986
193	0xbe1ff6dc	-0.15621513
194	0xbdd31eab	-0.10308584
195	0xbe977ef2	-0.2958904
196	0xbdc3e551	-0.09565223
197	0x3ec8ed4a	0.39243537
198	0xbe8124dd	-0.25223437
199	0x3eb44cb3	0.35214767
200	0x3bba853f	0.0056921537
201	0x3ebcef1f	0.36901185
202	0x3d835306	0.0641232
203	0xbe69c5cc	-0.2282936
204	0xbde6f313	-0.112768315
205	0xbdbf61fe	-0.093448624
206	0x3da48580	0.080332756
207	0xbec95d91	-0.39329198
208	0x3e198ebf	0.1499586
209	0x3da851d6	0.08218734
210	0x3e09ba7c	0.13450044
211	0x3c3f24a0	0.011666447
212	0x3ee429cd	0.4456314
213	0xbe5d2e5f	-0.2159972
214	0xbc05edad	-0.008174342
215	0xbd2e3db2	-0.042539306
216	0x3e4af1e7	0.19818841
217	0xbe7bf48d	-0.24605007
218	0x3e80573f	0.25066563
219	0xbc967950	-0.018368393
220	0xbd8bc48a	-0.06824596
221	0xbe00f50b	-0.12593476
222	0xbf15926e	-0.5842656
223	0xbcff2f8e	-0.031150606
224	0xbd87d7d9	-0.066329665
225	0x3e713e12	0.23558834
226	0xbe8c14fc	-0.2735976
227	0x3c9adf0c	0.018905185
228	0xbdbe01ef	-0.092777126
229	0xbca9c7c0	-0.020725131
230	0x3d206b7f	0.039165016
231	0xbe862b64	-0.2620498
232	0xbd0ff862	-0.035148986
233	0x3e074125	0.13208444
234	0x3dd30a9e	0.103047594
235	0xbc7a657a	-0.015282983
236	0x3ef07294	0.46962416
237	0x3deed0ad	0.116608955
238	0xbe03d062	-0.1287246
239	0xbebd5603	-0.36979684
240	0x3b039155	0.0020075638
241	0xbdcbd10d	-0.09951983
242	0x3e059fee	0.1304929
243	0x3ecbe3fe	0.39822382
244	0xbd66040f	-0.056156214
245	0xbe1f5126	-0.155583
246	0xbe57d4f4	-0.21077329
247	0x3e79bc4e	0.24388239
248	0xbbd464dd	-0.0064817504
249	0x3bd8f82c	0.0066213813
250	0x3d6893e3	0.05678166
251	0x3e8ec72f	0.2788634
252	0x3dcb320a	0.099216536
253	0x3f0e676b	0.55626553
254	0x3da23f48	0.07922226
255	0xbd841eff	-0.064512245

net.4.bias f4 [4]
0	0xbbeadda4	-0.007167535
1	0x3ba666d3	0.0050781756
2	0x3dfb9231	0.12283743
3	0x3d603c7a	0.054745175
